best_gnn_supervised.pth (torch, 268085 bytes, 8 tensors)

conv1.lin_l.weight f4 [128, 128]
000000 76 a3 95 3c fa d6 4b bc 9f 0c 69 3d 7f db 7a bc
       0.01826642 -0.012441391 0.056896802 -0.015311121
000010 81 d1 f6 bd 0a 41 86 3b a4 85 39 3d 6c 3a 2c 3c
       -0.120516784 0.0040971087 0.045293465 0.010511976
000020 3d 6b 57 3d 60 ad 30 3d a9 43 9d 3b eb 47 44 bd
       0.052592505 0.043134093 0.0047993255 -0.04792015
000030 7d 51 1c bc be ef 00 3d 34 de fa 3c da 99 a4 3c
       -0.009540913 0.031478636 0.030623533 0.020092893
000040 1f f1 76 3b 1c 0d bd bc da 6d 06 3e da 48 47 3d
       0.003768034 -0.02307754 0.13127843 0.04865346
000050 28 a7 42 bd 2a e8 7b bd 75 df 80 3d 4b c2 2b 3d
       -0.047522694 -0.061500706 0.06292621 0.04193334
000060 ea 92 92 bb db d2 ea bd 62 bc da 3c 55 cd 8f bd
       -0.00447308 -0.11465999 0.026701156 -0.07021586
000070 21 a1 6d bd bc b2 ad bd 4a 70 85 bd 6e 98 1b bc
       -0.058014993 -0.084813565 -0.06515558 -0.009496791
000080 ad 6d 8e 3d 42 3d 1f 3d 89 83 32 bb 81 64 90 bc
       0.06954513 0.03887678 -0.0027239046 -0.017626049
000090 11 8a 67 3d b0 c5 ff 3c ce 1d 7d bd 9a c8 9e 3d
       0.056528155 0.031222194 -0.061796002 0.077531055
0000a0 df c6 e4 bc 25 d3 f2 ba 98 50 da bc b3 30 82 bd
       -0.02792686 -0.0018526061 -0.026649758 -0.06356945
0000b0 21 40 a8 bd 34 7c b0 3d 0c 13 a1 bd 2f 40 ab 3d
       -0.082153566 0.0861744 -0.07864961 0.083618514
0000c0 29 b5 55 3d 5d b2 87 3d ba ab 69 bd 23 22 07 3b
       0.05217472 0.06625817 -0.057048537 0.0020619712
0000d0 26 f3 98 bd fc 7d e7 39 08 0f 99 bc 0f 3b 53 3b
       -0.07468252 0.0004415362 -0.018683925 0.0032231247
0000e0 d1 7a a7 bd 04 8a e8 bb 2a 89 d2 3c a6 d3 52 bd
       -0.08177722 -0.007096531 0.02570017 -0.051471375
0000f0 1d 4c 29 bd 0e b7 ae bd 4d f5 0d bd 6d 98 36 3d
       -0.041332353 -0.08531009 -0.034657765 0.04457896
000100 34 8d 73 bd ee 5f 40 3b a8 f8 09 bc 25 37 4f 3d
       -0.059460834 0.0029354054 -0.008421101 0.0505897
000110 ef 96 f6 bc 18 2e 76 bc 5f 7f e6 bc c6 8a b0 bc
       -0.030101268 -0.015025638 -0.028136907 -0.021550547
000120 dc 6a 35 3d e8 ec ba 3c 56 1b 01 3d 64 a3 69 bd
       0.044291362 0.022818044 0.03152021 -0.057040587
000130 ad 9d 3f 3c 5d 27 0f 3c 84 8a bd bc 14 e0 a0 3c
       0.011695308 0.008737412 -0.023137338 0.019638099
000140 e0 ff 66 bd 6a 7a aa bc 37 b9 46 bd 68 e0 91 bd
       -0.056396365 -0.020810325 -0.04851648 -0.0712288
000150 7b f3 d6 3c 93 4d 84 bd 4f 9f 58 bd c5 a0 b1 bc
       0.026239147 -0.064601086 -0.052886304 -0.021683106
000160 19 e4 32 bd 66 b1 c4 bd af d6 18 bd 02 35 b3 3d
       -0.043674562 -0.096041486 -0.037314113 0.08750345
000170 9b 5e 47 bd 05 dd b4 3a 4d 07 c4 bd 10 4e 55 bd
       -0.048674207 0.0013798779 -0.09571705 -0.0520764
000180 89 d9 20 3c d6 ce 42 bc 2c 01 9b bd 47 72 be 3c
       0.009817489 -0.011890134 -0.07568583 0.023247851
000190 89 74 27 bd 3b a0 2b 3c af 07 ac 3d ac b8 cb 3d
       -0.04088262 0.010475214 0.08399903 0.09947333
0001a0 92 9f ae 3d e7 3e 20 3c fd b1 92 3d f5 e6 8c 3b
       0.08526529 0.009780622 0.07162855 0.004299993
0001b0 ca 69 0f bc d7 22 20 bc ed b5 af bc 96 53 d1 bc
       -0.008753249 -0.0097739315 -0.021449054 -0.025552552
0001c0 34 9b 9d bc cf af 17 3d e3 87 e0 bc 13 21 1b 3d
       -0.019239046 0.0370329 -0.027408546 0.03787334
0001d0 cc ba ac bd 77 fc 42 bd 35 19 f7 3d ea 50 c1 3c
       -0.08434066 -0.04760405 0.12065355 0.023598153
0001e0 7a 0a 86 bd b9 64 ba 3d f3 a5 bc 3d b6 6a 9c 3d
       -0.06544967 0.091012426 0.0921134 0.07637541
0001f0 40 c6 78 3d 9f c9 98 3b bf 96 77 3d d2 08 93 3d
       0.06073594 0.004662707 0.060446497 0.07179417
000200 44 db 9c 3c c2 77 3c bc 72 5d 2f 3d 21 25 2f bd
       0.019147523 -0.011503162 0.042813726 -0.04276002
000210 c8 b7 d4 3d 97 d4 2c 3c 85 48 af 3d 09 d4 bc 3d
       0.10386616 0.010548732 0.08558754 0.0922013
000220 0f 8a d3 3c 10 5e 28 3d 3b 7c b0 bc e2 b9 4c bc
       0.025822667 0.04110533 -0.021543613 -0.01249549
000230 d1 bb 9f 3d dd 6a 10 3b 3a 41 19 3c b5 5a d1 3d
       0.07799495 0.0022036352 0.00935393 0.10222379
000240 d9 0b 3d 3d 51 a1 da 3d cc e1 33 3b 28 4a d5 bb
       0.046153877 0.106753 0.0027447818 -0.0065090843
000250 a1 60 bf 3c 1a c8 90 3c 75 52 c9 3c 22 96 ac 3d
       0.023361506 0.01767354 0.024575451 0.08427073
000260 9c 22 d6 3c 9c b1 7d 3d fa 3c 74 3c e8 83 4b 3c
       0.02613955 0.06193696 0.014907116 0.012421586
000270 91 30 15 bd c3 b0 15 bb 7c 3d bf bc 83 ff 88 bd
       -0.03642327 -0.0022840954 -0.023344748 -0.0668936
000280 95 7a 8a bc 42 99 9c bd d9 e7 dd 3c b6 ad 7f 3c
       -0.016904155 -0.07646419 0.027088093 0.015605381
000290 22 07 2b 3b b2 80 b3 bc 11 a7 ab bd 6b a4 7b bd
       0.002609678 -0.021911953 -0.08381475 -0.061436098
0002a0 7e 06 6d 3c 57 78 ca bc d3 02 8c bc 34 13 0b bd
       0.01446688 -0.024715586 -0.01709119 -0.03395386
0002b0 ea 5b 2a 3c 50 01 27 3d cb e2 82 3b 4a 56 2f bd
       0.010397891 0.040772736 0.003994321 -0.0428069
0002c0 60 22 d0 bc c6 76 f7 bd 61 a9 27 3d a9 cf 3a 3d
       -0.025407016 -0.12083201 0.040933017 0.045608196
0002d0 2a 63 49 bd 2b ae 28 bd 66 0a a0 bc 34 88 9d bb
       -0.049166836 -0.041181725 -0.019536208 -0.0048074964
0002e0 1a 6d 54 bd 93 de 82 3b 38 5d e4 b8 d2 a0 61 bd
       -0.05186186 0.003993818 -0.000108892506 -0.05508501
0002f0 aa 88 50 3d a0 38 15 3e eb 61 88 3d 86 53 1b bd
       0.050911583 0.14572382 0.06659301 -0.03792145
000300 dc 95 32 3d c4 45 16 3d 3b e3 23 3d 3f 1f d9 bc
       0.04359995 0.036687627 0.040011626 -0.026504157
000310 8c 06 8f 3c f1 4b f4 bc 1a a2 e5 3c e3 a7 f5 3c
       0.017459176 -0.029821368 0.028031398 0.029987281
000320 21 81 83 3d f0 09 39 bd 07 fc e2 3c be ca 4e bd
       0.06421114 -0.045175493 0.027708067 -0.05048632
000330 a5 47 ba 3d e1 81 b4 3c aa bd 8c bd 24 fc 38 3d
       0.09095696 0.022034587 -0.06872113 0.045162335
000340 ce fc 6a 3d 13 99 fa 3b 79 60 85 3d 3a d2 79 3d
       0.05737 0.0076476424 0.06512541 0.060991503
000350 2c 69 11 3d 03 80 8f bd 73 4b 1c ba 09 7e b7 3d
       0.03550069 -0.07006838 -0.00059621705 0.08959586
000360 9d 76 a8 3d 24 fb 51 bd f8 d0 08 3d 76 15 76 3d
       0.08225749 -0.051264897 0.033402413 0.06007906
000370 f7 f4 aa 3c e2 5f 1b bc dd 60 50 bc 78 43 11 3d
       0.020868761 -0.009483309 -0.0127184065 0.035464734
000380 47 73 66 3d 80 54 0f 3c 2d a0 f4 3c d3 26 95 bd
       0.05626228 0.008748174 0.029861534 -0.07282796
000390 c9 d4 bc bb 62 bf 08 bc de 58 ab bc 1c d8 c2 3c
       -0.0057626707 -0.0083464105 -0.020916399 0.02378469
0003a0 da 38 9b bd cd f4 5d 3d d5 4d 29 bb 3a a5 be bd
       -0.07579203 0.05418854 -0.0025833745 -0.09308858
0003b0 70 ac 38 bb bd a0 5b 3d a7 c8 6b bd 2c 7b a2 bd
       -0.0028178953 0.05362009 -0.057564404 -0.079336494
0003c0 66 4a f8 bb b9 ba 94 3c 44 d0 61 bd c8 25 c3 3c
       -0.0075772284 0.018155443 -0.05513026 0.023821726
0003d0 42 e6 8d bd 4a 04 35 3b c6 2c 83 3d d0 a1 9a bd
       -0.06928684 0.0027620965 0.06405024 -0.075503945
0003e0 eb 11 79 bb cc a7 b5 bc 36 64 a2 bd 28 e0 d0 3c
       -0.0038005065 -0.022174738 -0.0792927 0.025497511
0003f0 87 b6 b4 bd 2a 0d d4 bc 86 07 c3 bd c6 4a ad bd
       -0.08823877 -0.025885183 -0.09522919 -0.084615275

conv1.lin_l.bias f4 [128]
000000 3d b4 47 be 17 b1 1c 3e 77 10 01 be 53 0e 2a bd
       -0.19502349 0.1530193 -0.12603937 -0.041517567
000010 1b b3 27 be 8d 54 8d 3d e3 82 9c 3d 24 e1 30 be
       -0.16376917 0.069008924 0.07642152 -0.17273384
000020 5f ba 3f be 6c 94 84 3c cb 6c 50 3d 54 20 4f 3d
       -0.18723439 0.016184054 0.050885003 0.05056794
000030 d3 93 40 be 5a 1f 13 be fe cf c2 bd bb 14 ca bd
       -0.1880639 -0.14367428 -0.095123276 -0.09867235
000040 42 c2 2b be 27 fe de 3d 5f 8d 2c bd b8 61 08 3e
       -0.16773322 0.108883195 -0.04212701 0.13318527
000050 74 7e 29 be 23 31 42 be 94 95 8d bd 4c ea 88 bd
       -0.16552144 -0.18964057 -0.069132954 -0.066853136
000060 d2 33 04 be e9 2d 44 ba a0 1c a4 3d ca cb ec 3d
       -0.12910393 -0.0007483648 0.08013272 0.11562307
000070 62 c5 1f be fa 09 19 be 5a de 1c 3e 66 88 56 3d
       -0.1560264 -0.14945212 0.15319195 0.052376173
000080 80 aa 21 be b2 49 36 be ce 56 31 bd 67 ec ed bc
       -0.15787697 -0.1780155 -0.043295674 -0.02904339
000090 52 15 aa 3d 64 d3 c7 bc 39 11 d7 3d c5 f2 88 3d
       0.08304848 -0.024392791 0.10501332 0.066869296
0000a0 b1 f7 29 be e0 33 c4 bd 60 f0 0a be 21 c9 e1 3d
       -0.16598393 -0.09580207 -0.13568258 0.110246904
0000b0 a1 8f 00 3e d3 e0 12 3e 06 72 de bd bd 9b 1f be
       0.1255479 0.14343576 -0.10861592 -0.15586753
0000c0 e3 3e ce bc 2b 30 89 bd ac e8 0c 3e b8 9c f5 bd
       -0.025176471 -0.066986404 0.13760632 -0.11992782
0000d0 20 8e 69 bd c1 2c 5e bd 1e c6 ec bd 87 64 c0 bd
       -0.057020307 -0.0542419 -0.11561225 -0.09394174
0000e0 4e f6 8f bd 3b bb b0 3d 21 26 ad bd cd fb eb bd
       -0.07029401 0.086294614 -0.08454538 -0.115226366
0000f0 ab 24 b7 3d 70 cb b4 bd 53 d3 f2 3c 9e 6e 25 be
       0.08942541 -0.08827865 0.029641783 -0.16155478
000100 8e 25 65 3d 1a e0 c3 bd 01 76 34 3a 35 ee 07 3e
       0.055944018 -0.09564228 0.0006884039 0.13274463
000110 e3 32 6b bd 62 a9 d2 bd 71 07 a6 3c bd 8e d0 bd
       -0.057421576 -0.102862135 0.02026722 -0.10183475
000120 12 05 0d be 6d 58 06 be 0f d9 2e be 05 65 6f 3d
       -0.13771465 -0.1311967 -0.17074989 0.05844595
000130 73 f5 b0 bc 60 a2 22 3e 1a b0 9f bd 94 00 32 3e
       -0.021601414 0.15882254 -0.077972606 0.17383033
000140 42 4c f5 bd ff c8 8c 3d cf 28 9e bc 8e 1b 3b 3e
       -0.11977436 0.068742745 -0.019306568 0.1827223
000150 86 a8 35 be 6e 8b 30 be 32 3d 24 3e 05 e4 6b bd
       -0.17740068 -0.17240688 0.16038969 -0.057590503
000160 e0 35 41 bd 49 ed 21 3d 95 78 17 3e 40 f1 ca bd
       -0.04717052 0.039532933 0.14792092 -0.09909296
000170 ce 1a f5 bd 9a a9 10 be 98 c6 37 be c4 6f 3d be
       -0.11968003 -0.14127198 -0.17946851 -0.18499666
000180 e8 f5 0a be f1 a3 21 3e dc ba a0 3d b8 55 8d 3d
       -0.13570368 0.15785195 0.078481406 0.06901115
000190 70 73 05 3e 44 c0 b3 3d d4 30 41 3e d5 c5 f2 3d
       0.13032317 0.08776906 0.18866283 0.1185414
0001a0 83 ee 34 3e 06 e7 ce 3d 20 ee 84 3c 28 83 36 3d
       0.1766911 0.10102658 0.016226828 0.044558674
0001b0 5b 52 24 3d eb 88 9e bd 07 8c 10 be 39 6a 04 3e
       0.040117603 -0.07740959 -0.14115916 0.12931146
0001c0 ac 5d 18 be ad dd 10 bd e5 42 93 3d 95 c7 5a bb
       -0.14879483 -0.035367656 0.071904935 -0.003338312
0001d0 da 9b de 3d 52 83 e1 bd 8c c3 e0 bd 3e db fd bd
       0.1086957 -0.110113755 -0.109747976 -0.12395333
0001e0 f1 9f 03 3d bf 50 ca 3d 3b 6a 85 bc b8 8b 47 be
       0.032134954 0.09878682 -0.016286006 -0.19486892
0001f0 89 16 2d be 9e 0f 68 bd 7f a7 82 bc ff b5 c7 3c
       -0.16903128 -0.05665552 -0.015949009 0.024378775

conv1.lin_r.weight f4 [128, 128]
000000 44 04 3d bc f2 eb 54 bd dc 99 a0 bd dd 7d 9d 3c
       -0.011536662 -0.051982827 -0.07841846 0.019225055
000010 1f 4f 13 3d d0 f2 c5 bc b5 b9 33 bd fc c3 dd bc
       0.035964128 -0.024163634 -0.043878276 -0.027070992
000020 af 06 ca 3c d2 5f bb 3a b5 3b 6d 3c e3 c2 27 3d
       0.02466139 0.0014295524 0.014479567 0.040957343
000030 c2 a2 c0 bd 6a 23 b1 bc 51 6e af bc 84 ff be 3d
       -0.094060436 -0.021623332 -0.021414908 0.093260795
000040 27 73 a4 bc ff 89 a5 3c f0 da bc bd 66 6a 63 bd
       -0.02007444 0.020207403 -0.092214465 -0.05552139
000050 15 15 b2 bc a7 53 5d 3d 8c fc 23 bd 10 0b ca bc
       -0.021738568 0.054034855 -0.04003577 -0.024663478
000060 f5 d1 22 3c b7 70 ab 3a f2 6c 4c 3d 03 52 95 bd
       0.009937753 0.0013079856 0.049908586 -0.07291033
000070 57 8f b3 bc c2 41 96 3c 1a 16 90 3d dd df 3a 3c
       -0.021918936 0.018341903 0.070354655 0.011405912
000080 05 e7 69 3a a9 90 10 3d e2 33 0c bc 41 b5 1c 3c
       0.0008922669 0.03529421 -0.008557292 0.009564699
000090 1f 18 0f 3d 69 2e 21 3d 72 b0 61 bc 2f 63 98 bd
       0.034935113 0.0393509 -0.013774978 -0.07440793
0000a0 b2 16 05 3d 60 ef a6 bc 12 4c 89 3d ab 2a 0f 3c
       0.032492347 -0.020377815 0.067039624 0.0087382
0000b0 65 90 55 3d ed 73 a6 bc 32 b1 96 bd 59 4b 38 3d
       0.05213966 -0.02031895 -0.07358016 0.044993732
0000c0 50 50 34 bc 02 58 33 3d f3 f9 bd 3c 41 bf 29 bd
       -0.011005476 0.043785103 0.023190474 -0.04144216
0000d0 04 41 c3 bd eb 87 48 bc 5c 12 e7 bc 5a 31 c2 bc
       -0.09533885 -0.012239437 -0.028206997 -0.023705173
0000e0 f7 80 18 bd b9 ef 3b bd 92 f3 27 bd f6 18 a4 bd
       -0.037232365 -0.045882914 -0.04100377 -0.080125734
0000f0 ae 4b c2 3a 3e 04 49 3d df a0 27 3c cd 03 cf bd
       0.001482358 0.04907631 0.010231226 -0.10108147
000100 9b 6e a0 bd 5e f0 bc 3c a4 a5 bf 3c b3 9b d0 3c
       -0.07833596 0.023063835 0.023394413 0.025464868
000110 ae 81 8f bd db db bc ba 0e 96 16 3b 76 8d 83 3d
       -0.07007156 -0.0014408784 0.0022977623 0.06423466
000120 56 d7 18 bd b0 a9 ac 3a 73 8a 08 3d 58 2b e8 bb
       -0.037314735 0.0013173129 0.03333516 -0.007085245
000130 86 5f e5 3c 83 93 23 bd e8 21 fb bc 35 4d 0e bc
       0.02799965 -0.0399356 -0.030655816 -0.0086854
000140 14 db 1b bd 93 dc 05 bd 69 97 94 3c 80 3a 40 bc
       -0.038050726 -0.03268106 0.018138604 -0.0117326975
000150 25 64 e4 bd 0e 78 41 3d ae cf e4 bb 18 d7 03 bd
       -0.111519136 0.047233634 -0.006982765 -0.03218755
000160 41 65 1e bd 11 46 a1 3c 59 1a 3b bc f0 e5 64 3d
       -0.038670782 0.01968673 -0.011419856 0.055883348
000170 d6 6a 75 3c 7e 9b 84 bc 2f ec 49 3d 5e f0 04 3d
       0.014979085 -0.016187426 0.049297508 0.032455795
000180 62 9f bb bc 9f 65 cb 3c 65 24 c3 3c ec 97 f6 3c
       -0.022903148 0.02482873 0.023821065 0.030101739
000190 12 07 11 3b e4 d8 dc bb cb 8b bb 3a 77 f4 6c bd
       0.0022129458 -0.0067397226 0.0014308629 -0.057850327
0001a0 3c 45 bb bb 4e 00 92 3c 70 2f ad 3b 70 79 68 3d
       -0.0057150405 0.01782241 0.005285196 0.056756437
0001b0 ac b0 a9 ba 48 f9 0f bd 70 23 62 bd 41 d7 34 3c
       -0.0012946329 -0.035149843 -0.055209577 0.011037649
0001c0 39 9f f2 3c c2 93 12 3d 10 6c 64 bd 4d 73 26 3d
       0.029616939 0.035785444 -0.05576712 0.040637303
0001d0 9f f8 7f 3d ea 08 e4 ba 5a 75 f1 bc 87 07 88 bd
       0.062492963 -0.0017397676 -0.029474903 -0.06642061
0001e0 98 6c 0f 3d b8 60 90 bd 5e 89 8c 3d 9f 05 99 bd
       0.035015672 -0.07049698 0.06862138 -0.07471775
0001f0 92 8c 4c 3d 9b f3 2c 3d 05 06 15 bd 5f c2 dc bc
       0.049938746 0.042224508 -0.036382694 -0.026948152
000200 09 54 14 bd f4 73 ae 3c cf 52 64 bd 1f 69 f2 bc
       -0.036212955 0.021295525 -0.055743035 -0.029591141
000210 f6 d2 65 3d 0e 1a ac 3c b1 de 55 3d b1 a6 a6 bb
       0.05610939 0.021008518 0.05221433 -0.005085789
000220 b1 89 92 bd f5 82 95 bc 71 80 20 bd 42 99 4e bd
       -0.07155169 -0.018250922 -0.03918499 -0.050439127
000230 06 71 b9 bc 2d 9b 88 3d e9 b9 a2 3c 23 d7 4c bc
       -0.022636902 0.066702224 0.01986404 -0.0125024645
000240 71 2e 01 3d e9 1e 9e 3d d8 03 b6 3c 26 65 8a 3d
       0.03153843 0.077207394 0.02221863 0.06757574
000250 7d 01 b6 bc 9e 23 93 bd 0e b8 e7 bc 34 a0 8d bd
       -0.022217507 -0.07184528 -0.028286006 -0.06915322
000260 47 3d a0 bc cb bd cc bc 6d 71 ec 3b 18 7e 79 3b
       -0.01956047 -0.024992844 0.00721567 0.0038069542
000270 a4 53 9c 3d 2b 27 fb 3c 28 c2 a0 bc 00 25 0c 3c
       0.07633141 0.030658325 -0.01962383 0.008553743
000280 46 37 25 3d 5d 86 5c bd d5 9e 9e 3d 29 67 48 3d
       0.040335916 -0.053839076 0.077451386 0.048926506
000290 8f 04 aa bc 92 ca 80 bd b4 c6 a8 bb f2 5c 05 ba
       -0.020754127 -0.06288637 -0.0051506404 -0.00050873973
0002a0 e1 dd 9a 3d a4 c5 6a bc 01 1e c7 3d a4 c9 fb bc
       0.07561851 -0.014329348 0.0972252 -0.030735798
0002b0 35 52 81 3d be da 17 bd 32 46 d6 bb 76 6e 82 bd
       0.06314508 -0.037073843 -0.0065391297 -0.06368725
0002c0 b9 20 8f 3c 25 a4 79 3d cd 34 4f 3d cb 9e fd bc
       0.017471658 0.060947556 0.050587464 -0.030959507
0002d0 05 3e c3 3b 11 9a 31 bc 49 2d d1 bb 87 5f df bc
       0.005958321 -0.010839955 -0.0063835722 -0.02726723
0002e0 51 30 b4 3b 26 e3 d5 3c 17 ac 85 3d 55 1f 06 bd
       0.005498924 0.02610929 0.06526964 -0.032744724
0002f0 3b 92 c8 3c 29 b0 4e 3d 7c d3 23 3c 4f e5 9b bd
       0.02448379 0.05046097 0.009999152 -0.076120965
000300 06 aa ea 3c 10 f2 04 bb ed 8f 32 3d 58 43 c7 3c
       0.028645527 -0.0020285882 0.04359429 0.024324104
000310 72 13 f2 bc 58 79 97 bd 6b e6 23 bd 51 26 a6 3b
       -0.029550288 -0.07396191 -0.040014666 0.0050704856
000320 ed d8 89 bc b8 ec 89 bd 8b f9 51 3d 39 b2 d5 bc
       -0.016827071 -0.06734604 0.051263373 -0.02608596
000330 20 55 1e bd 6b 51 83 bd b8 91 06 3d a7 fc 4c bd
       -0.0386554 -0.064120136 0.032853812 -0.050045636
000340 b0 f4 49 3c 46 ac 4a bd db 6f a3 bc b4 1f 24 bd
       0.012326404 -0.0494807 -0.019950798 -0.040069297
000350 83 f7 14 3c 6f da 71 3d df 48 07 bd 86 c4 57 3b
       0.0090922145 0.059046205 -0.03302848 0.0032923534
000360 16 fe 21 3d cf e0 26 bc 51 b4 56 bd 79 46 94 bd
       0.039548956 -0.0101854345 -0.052418057 -0.07240004
000370 43 ed a8 3d d8 16 00 bd ce f4 40 bd fa ff 11 3a
       0.08248379 -0.031271785 -0.047108464 0.00055694545
000380 82 b8 f4 3c 8a 5f f0 3b 02 7b 97 bd f2 27 c2 bc
       0.029873136 0.007335608 -0.07396509 -0.023700688
000390 e9 3d 40 bd c4 1c e0 bc 00 44 82 3c c5 9f f4 3c
       -0.046934042 -0.027357467 0.015901566 0.02986134
0003a0 62 10 94 3b 0f e3 25 3d 32 33 5a 3d e1 4a 91 3b
       0.0045185545 0.040499743 0.05327148 0.004433975
0003b0 ae cc 68 bd 33 cd ea 3c a8 c2 ba 3c 2d ef 94 3d
       -0.056835823 0.0286623 0.022797897 0.07272182
0003c0 30 9d 0b 3d 59 0c 24 3d 04 4a ce 3c 69 01 53 3c
       0.034085453 0.04005084 0.025181778 0.012878754
0003d0 6c d3 df 3c 05 93 db bb 8c e9 ae 3d cb 92 d5 3b
       0.027322493 -0.0067008757 0.08540639 0.006517743
0003e0 41 87 b6 bb b9 00 f9 3c 82 b9 a2 3d 2e bd 95 bc
       -0.0055703227 0.030395852 0.07945539 -0.018278684
0003f0 45 a2 b2 3c a6 78 1d 3d 71 9e 3f bd c5 84 42 3c
       0.021805892 0.038445137 -0.04678196 0.011872475

conv2.lin_l.weight f4 [128, 128]
000000 d8 dd 3d bd e2 58 ba 3b 6d be f8 3b 6d 80 f1 bc
       -0.046354145 0.005686865 0.00759106 -0.029480183
000010 f1 8a 65 3d d0 2e 02 bd 38 cf de bd 17 12 1e 3c
       0.056040708 -0.031782925 -0.108793676 0.009647868
000020 63 09 e4 bc ce 94 37 3d 6d 3c f8 bc 03 e0 82 3b
       -0.027836507 0.044819646 -0.03030225 0.0039939894
000030 11 0d cf 3c e7 c0 f9 3c 46 56 5e bd 44 75 36 3c
       0.025274785 0.03048749 -0.054281496 0.011136357
000040 41 76 0c 3d 65 be d2 3c 00 be a8 3d fd 81 1c bd
       0.034292463 0.025725553 0.082393646 -0.038209904
000050 04 19 b2 bc ff 06 99 bc 91 46 17 bb da 29 a3 3d
       -0.021740444 -0.018680094 -0.0023082832 0.07966967
000060 d5 2b 4c 3d 10 f6 c7 3b 3c 76 78 bd 08 d6 83 bd
       0.04984649 0.006102331 -0.060659632 -0.064373076
000070 58 a7 02 bd 34 74 64 bd d7 43 2b bd a8 da 0a 3c
       -0.031897873 -0.055774882 -0.041812744 0.008474983
000080 cd ba 4d bd 44 a2 a5 3d 72 f0 ef 3c 0a 5e 38 3d
       -0.050226975 0.0808759 0.029289458 0.045011558
000090 db d6 de bd b2 1f a7 3c 78 89 03 3d 39 fe 54 bd
       -0.10880824 0.020400856 0.032113522 -0.052000258
0000a0 5f 38 8d 3d 4d 1e 20 3d fe 77 7f bc 99 e4 3d 3d
       0.068955176 0.039091397 -0.015592573 0.046360586
0000b0 4e e1 f4 3c d5 6a 3f 3d 29 23 cc 3c c6 bb ce 3d
       0.02989259 0.046732742 0.02491911 0.10094409
0000c0 09 d7 97 3d f4 2a 75 bd 27 2c 73 3d 90 05 2d 3c
       0.074140616 -0.059855416 0.05936828 0.010560408
0000d0 59 e3 8f bd ae 31 6b 3d ae 86 ec 3b 33 e1 c8 3c
       -0.07025785 0.057420425 0.0072182035 0.024521446
0000e0 76 e2 74 3d 1c a3 34 3d 51 62 bd bc 44 ce 18 bb
       0.059786282 0.044100866 -0.02311817 -0.0023316303
0000f0 ee f4 d7 bc c2 0b 8c 3d 82 c5 1a bd f6 21 95 3c
       -0.026361909 0.0683818 -0.037786014 0.01820467
000100 5a f0 22 3d 03 13 19 3b fc 73 c5 3d f2 10 33 bd
       0.03978 0.002335728 0.09641263 -0.043717332
000110 40 c7 42 bd 8b 28 52 bc 19 2e ac 3d b2 4b 54 3c
       -0.0475533 -0.012827049 0.0840723 0.0129575
000120 6b ce d3 3c d5 05 40 bd f9 51 b5 3d d6 97 77 3d
       0.025855264 -0.04688056 0.08853526 0.060447536
000130 d5 dc da bc a0 0e 46 bd e5 ec 58 bd 3c f3 cf bc
       -0.026716629 -0.04835379 -0.052960295 -0.025384538
000140 90 d9 a3 3c a1 8e d9 3c ff d5 22 3d b0 ff 9d bd
       0.020001203 0.026557269 0.039754864 -0.07714784
000150 a0 1b 66 bd ab f0 80 3d 28 ba a4 bd 8d a7 34 bd
       -0.05617869 0.06295904 -0.08043319 -0.0441051
000160 ed a6 a3 3d 0e bd 69 bb 30 2e 7a bd 20 d5 8e bd
       0.07990823 -0.0035665664 -0.061079204 -0.06974244
000170 ea 74 78 3d 6a 68 8d 3a f9 83 d9 bc a9 28 80 3d
       0.060658373 0.0010788564 -0.026552187 0.06257755
000180 bf 60 d9 3c 93 26 92 3c 02 98 2d bd e7 21 40 bd
       0.02653539 0.01784066 -0.042381294 -0.04690733
000190 8b 02 23 3d 3d 92 ab bd 4f c3 0c bd 32 85 6d bc
       0.039797347 -0.08377502 -0.03436595 -0.014497088
0001a0 bf 7b d5 bd 25 dc 8d bd 70 f6 b8 3b df 6e 04 3d
       -0.10423993 -0.06926755 0.005644612 0.032332297
0001b0 d2 a0 97 3c c3 32 14 3c 77 6a 8c 3d 9b a5 a8 bd
       0.018509302 0.009045306 0.06856244 -0.08234712
0001c0 30 df 4a 3d 5e 50 40 bd 78 88 8a 3d d4 1a 8e bd
       0.049529254 -0.046951644 0.067643106 -0.06938711
0001d0 35 16 1a 3d c1 37 3e bd c9 55 4e 3d 59 7b 60 bd
       0.037618835 -0.04643989 0.05037478 -0.054805133
0001e0 97 df 95 3c a3 95 8b 3c 30 0f 3e 3d ca 20 d9 3c
       0.018295093 0.017039126 0.046401203 0.026504893
0001f0 a9 26 3d 3d b5 af 60 bd f2 c3 b0 3c 93 40 41 bd
       0.046179447 -0.054855067 0.021577809 -0.047180723
000200 cd 43 0e 3d 41 35 53 3d 21 fb 8b 3d a2 57 97 bd
       0.03473263 0.05156446 0.068350084 -0.073897615
000210 4e c0 bb 3d 9d 2f 14 bd ed 03 ed ba 3a 4b 14 bd
       0.091675386 -0.03617822 -0.0018082835 -0.036204554
000220 37 1f 40 bd ec 06 97 3b 7d 2d 7f 3d ec 8f c0 3d
       -0.04690477 0.0046089794 0.06229924 0.09402451
000230 df 9d 72 3d be 24 e1 bc 60 b8 dc 3d ec bd 85 3d
       0.05923259 -0.02748334 0.10777354 0.06530365
000240 db 31 8b 3d eb 32 ce 3c b4 c4 4f bd 4c 98 9b bd
       0.067966186 0.025170764 -0.0507247 -0.07597408
000250 16 da 30 3d cd 92 1b bd 6a 87 1b 3d 30 b1 ae 3d
       0.043176733 -0.037981797 0.037970938 0.085298896
000260 6a 5a 02 bd 26 ce 01 bd 5f 3d ac bc 9f 65 41 bc
       -0.031824507 -0.03169074 -0.021025358 -0.0118040135
000270 6d 5d cb 3b 10 7d 5c bb 1a 6e 22 bd 92 a1 88 3c
       0.0062062056 -0.003364388 -0.039655782 0.016678605
000280 19 91 9b 3d 41 43 bf 3d 57 fb 82 3d 29 7c 93 3d
       0.075960346 0.093389995 0.063955955 0.07201416
000290 72 04 76 bd 75 fc 6b bc 22 85 3a 3c 7b 0d 14 3c
       -0.060062833 -0.014403452 0.01138428 0.009036417
0002a0 b0 44 8a 3d 9b 15 c6 3b 54 94 b0 3d 74 28 2a 3d
       0.06751382 0.006045056 0.08622041 0.041542485
0002b0 3c 84 36 bd 0e 16 76 bd 43 b5 9e 3c 37 64 58 3d
       -0.044559702 -0.060079627 0.019373542 0.052829947
0002c0 6e aa 39 3d 2e 16 12 bd c5 61 2c 3d e8 00 6b 3d
       0.04532855 -0.035665683 0.042085428 0.05737391
0002d0 6f 59 cc 3c 04 b9 82 3d 7d bd 42 3d 4c bc cb 3d
       0.024944989 0.06382945 0.04754399 0.09948024
0002e0 39 41 41 bd 07 16 36 3d 53 90 e7 3c 6c 4d 30 3d
       -0.04718134 0.0444546 0.028267061 0.043042585
0002f0 ec aa 84 bd a3 01 d8 3d 22 f5 a1 bd 30 6f f7 bc
       -0.06477913 0.10547187 -0.079080835 -0.030204386
000300 c8 7a 00 bd 83 50 ae 3d ee 21 b6 3c 6e 1b a1 bd
       -0.031367093 0.0851145 0.022232976 -0.0786656
000310 9d af 29 3d 4b e6 a7 bc 46 3a ae bc 0d e9 03 bc
       0.041427244 -0.020495554 -0.021268021 -0.008051169
000320 87 16 06 bd 3a 0b 95 3c 3c 45 27 bd cd ad 46 3c
       -0.032736327 0.01819383 -0.04083751 0.012126398
000330 c1 de c9 3a b1 69 42 3c 9a c8 1f bd f9 ab 63 bc
       0.0015401469 0.011866019 -0.039009668 -0.013895982
000340 4a 73 da 3d 34 23 55 bd 78 0c 76 bd ab cb ba bb
       0.10666521 -0.052035525 -0.060070485 -0.0057005486
000350 6a b0 de bc 94 77 b0 3d eb 4a 75 bd 9b a4 0a 3d
       -0.02718373 0.08616558 -0.0598859 0.033848386
000360 e9 13 65 3d 2d cb 86 bd fc 4a 54 bd b5 22 b1 ba
       0.05592719 -0.065817215 -0.051829323 -0.0013514372
000370 da 7d 36 bd ec 6a b6 bc 66 98 17 bd 3f 0b ff bc
       -0.044553615 -0.022267781 -0.037010573 -0.031133292
000380 f0 56 93 3d c5 5f af bd 7e b2 54 bc 73 2e 60 bc
       0.071943164 -0.085631885 -0.012982009 -0.013682949
000390 d3 ee 36 bd 7e 2a 60 3d 6f 0f 93 3d 80 ba b4 3c
       -0.044661354 0.054728024 0.07180678 0.022061586
0003a0 69 82 c4 bd 3e 5f 59 bc 23 30 56 3d 47 6b 75 3d
       -0.09595186 -0.013267336 0.052292 0.05991676
0003b0 7c fb 8b 3d 46 31 86 3d 95 83 6f 3c d7 83 2a 3d
       0.06835076 0.06552367 0.014618774 0.04162964
0003c0 f2 30 d8 3d 42 c8 01 bd c1 1d 9e bd e9 39 e4 bc
       0.105562106 -0.03168512 -0.07720519 -0.027859645
0003d0 2f ad 1c bc ad 91 4f 3d 97 b9 f4 bc 58 ea 46 3d
       -0.009562775 0.050676037 -0.029873652 0.04856333
0003e0 78 7f 24 3c 2f 92 99 3d d0 0d eb 3b 42 37 f4 3c
       0.010040157 0.074985854 0.0071732774 0.029811505
0003f0 f1 6a 9c 3d 53 d7 8f 3d 3d ac e2 bc a2 6f 58 3d
       0.07637585 0.07023492 -0.02767002 0.052840836

conv2.lin_l.bias f4 [128]
000000 7b 26 b6 3b ef b7 18 bd 15 c1 cc 3c f5 a8 5f 3c
       0.0055587864 -0.037284788 0.024994412 0.013651122
000010 99 d7 2e 3e eb 36 fb 3c 8e b2 f0 3d 94 a7 9c 3b
       0.17074431 0.030665835 0.117528066 0.004780719
000020 da f6 e0 bd e3 72 4b 3b a0 83 d0 bd 24 c0 34 be
       -0.10984583 0.003104382 -0.101813555 -0.17651421
000030 a9 3b 1e 3b 8a 6f 85 3c 16 30 89 bd 80 7c 44 bc
       0.0024144447 0.016288538 -0.06698625 -0.011992574
000040 34 2e a7 bd 8b 7d 0c be 44 68 3b 3d f8 0e 19 bd
       -0.081631094 -0.13719766 0.045753732 -0.03736779
000050 c6 07 00 3e 99 fe 1e bd d8 ea a6 3c 06 00 c8 bd
       0.12502965 -0.038817022 0.020375654 -0.097656295
000060 f7 80 76 bc fa f7 14 be 6b fe 97 bd 69 bb 74 3d
       -0.015045396 -0.1454772 -0.07421573 0.05974904
000070 be e7 49 bd 38 e3 cb bd 99 4c 07 3e 84 b5 09 3e
       -0.049293272 -0.09955448 0.13212813 0.13448149
000080 1c a1 08 be 2f bf 13 be 68 26 07 3e 08 f9 14 be
       -0.13342708 -0.144284 0.13198245 -0.14548123
000090 c7 cd 72 bd 50 77 8c 3d 18 27 31 bd 47 5d a5 bd
       -0.059278276 0.068586946 -0.043250173 -0.08074432
0000a0 bb ce a4 3c c7 64 10 3e e3 7d 1d be 04 c0 17 be
       0.020118108 0.14100944 -0.15380053 -0.14819342
0000b0 74 5c 47 3d 4e d7 8c bc f2 92 89 bd c8 11 16 be
       0.048672155 -0.017192509 -0.06717481 -0.1465522
0000c0 2c c9 9d 3d db 64 a4 3d b7 62 17 be f5 36 24 3e
       0.07704386 0.08027049 -0.1478375 0.1603659
0000d0 d8 a1 f8 bc a7 e5 9c bc 78 88 0c 3d 60 d3 f9 3d
       -0.03035061 -0.019152476 0.034309834 0.1219852
0000e0 ca 18 32 3d d1 eb c2 3d d1 7a 25 3e 0a 27 91 3d
       0.043480672 0.09517635 0.16160132 0.07087524
0000f0 a1 8b 12 3e e7 ec 8f 3d fb 06 0e 3e fa bf 02 bd
       0.14311077 0.070276074 0.1386985 -0.031921364
000100 30 f9 98 bd 93 ff 19 3e 22 2e de 3c e0 6e 10 3e
       -0.07469404 0.150389 0.027121607 0.14104795
000110 a8 c3 00 bd d7 75 11 be f9 2f e0 bd c0 96 90 bd
       -0.031436592 -0.14205109 -0.1094665 -0.07060003
000120 77 eb 88 bd bd c7 0b 3e d5 9d 66 bd e2 c5 42 3c
       -0.06685536 0.13650413 -0.056302864 0.011887999
000130 8d ac 0a 3e 5c cf ca bc 5b 18 d3 bd 04 93 38 be
       0.13542385 -0.02475708 -0.1030738 -0.18024832
000140 8b 3b f9 3d c7 5f d2 bc e1 87 74 3d bd fc 1b bc
       0.1216956 -0.025680436 0.059699897 -0.009520707
000150 52 39 1a be 19 d0 bc bb eb f2 d6 bd 5d bc 08 be
       -0.15060928 -0.005762112 -0.10495552 -0.13353105
000160 df ef f1 3c d0 8e bb 3c 5e 8e 00 be 29 3b a4 3d
       0.029533325 0.022895247 -0.12554309 0.080190964
000170 61 a9 a1 3d 10 40 90 bd a3 ac b6 bd 2d 86 00 be
       0.078936346 -0.07043469 -0.089196466 -0.12551184
000180 aa 06 39 bc 06 9f 4d 3d b8 ff e1 bc f5 db 88 bc
       -0.011293093 0.050200485 -0.027587757 -0.016706446
000190 a3 7a 96 3d 2a 89 26 bd d1 46 91 bd 12 d4 e4 bd
       0.0734761 -0.040658154 -0.07093585 -0.11173262
0001a0 01 c2 07 be d8 ea 19 be 73 94 80 bd 5b a0 d6 bd
       -0.132576 -0.15030992 -0.062783144 -0.10479804
0001b0 14 d4 02 3d a2 7e b4 bd ff 08 c3 3d 4f dd ba bd
       0.031940535 -0.08813216 0.095232 -0.091242425
0001c0 f0 9f 33 be 0a 25 22 bd b4 43 22 3e 65 75 3d 3d
       -0.1754148 -0.039586104 0.15846139 0.046254534
0001d0 f1 6c e3 3d e3 4c 3b 3e f8 a0 11 3e 63 17 20 bd
       0.11104763 0.18291049 0.14221561 -0.039084803
0001e0 1e b8 74 bc a3 c9 8b 3a 5a 34 89 3d d8 73 fa bc
       -0.014936475 0.0010664951 0.066994384 -0.030572817
0001f0 ff d5 e0 bd 00 c2 23 be bf 50 49 bb 86 d6 a4 bd
       -0.109783165 -0.15991974 -0.0030718294 -0.080487296

conv2.lin_r.weight f4 [128, 128]
000000 0a 79 21 bc 6b 76 ac 3d 4d 08 70 3d c9 dd 08 3c
       -0.009855518 0.08421024 0.058601666 0.008353659
000010 bb 31 5c 3d da 13 64 bd 72 ab 2f bb d2 f8 12 bd
       0.053758364 -0.055682994 -0.002680507 -0.035881825
000020 a0 2c a8 3d 31 42 b7 bc 0a 16 5f bd a7 1c 52 bd
       0.082116365 -0.02237043 -0.054464377 -0.051296856
000030 71 49 e1 3d 99 5c 1e bd 85 e2 e5 ba 3c 35 a9 3d
       0.11000336 -0.038662527 -0.0017538822 0.08262107
000040 a6 d3 46 3c 71 57 8c bb 22 47 a9 3c ca 05 26 bd
       0.012135422 -0.0042828848 0.020663802 -0.040532865
000050 42 f3 c2 3d 03 2e a4 3d 6d d6 92 3d 7d 85 ea bc
       0.09519054 0.080165885 0.07169805 -0.028628105
000060 8b f6 c6 3d 0c ee 99 bd f5 47 a6 3c 2b ec 31 3d
       0.09714993 -0.07516107 0.020297984 0.043438118
000070 97 65 5b bd 03 73 eb 3d 87 11 75 bd b6 cb 26 bd
       -0.05356368 0.11496546 -0.05983117 -0.040721618
000080 8d 2d 6c 3d b3 bd c1 3c 44 ca 7a 3d b9 60 7b 3d
       0.057660628 0.023650026 0.06122805 0.06137154
000090 03 19 ca 3d b1 6d 9a bd 8b 9e 15 bd 7d a7 8b 3d
       0.09868052 -0.07540453 -0.03652815 0.06819055
0000a0 6b 56 0f bd fd 1e 60 3d 48 de 84 3d 1d 9b 2a 3d
       -0.034994524 0.054717053 0.06487709 0.041651834
0000b0 93 1c ba bd a7 d8 ea bd a2 4a 6f 3d 66 83 05 3a
       -0.09087481 -0.114671044 0.058420785 0.0005093127
0000c0 b8 c6 09 bc 8f 43 a9 bd 68 1c b5 bc e7 b3 24 3d
       -0.008409195 -0.08264839 -0.022108272 0.04021063
0000d0 24 c2 18 bd 7c 0b 34 bd 71 98 71 3c 45 9c 4c bd
       -0.037294522 -0.043956265 0.0147458175 -0.049953718
0000e0 5a 41 b1 3d 79 43 28 bd 75 10 80 bc 20 48 b0 3b
       0.08655043 -0.041079972 -0.015632847 0.0053796917
0000f0 65 4b b1 ba 8c 1d b1 3b ff 8b db bb 8b 40 02 3d
       -0.0013526498 0.0054051336 -0.0067000384 0.031799834
000100 7f 8f 89 bd 0c dc 80 bd 9b cc 48 bd 27 c9 c4 bc
       -0.06716823 -0.062919706 -0.049023252 -0.024021698
000110 3f ed 6e 3d 84 48 1b ba a6 24 e1 bc 82 62 ec bb
       0.058331724 -0.00059235864 -0.027483296 -0.0072138915
000120 3e 64 c0 3d 7a 1e a9 3d ff d8 20 bd 99 f3 23 bd
       0.0939412 0.08257766 -0.039269444 -0.040027235
000130 6f 02 8a bc 25 d7 61 bc 04 c2 e4 3d bf 23 96 bd
       -0.016846864 -0.013784205 0.11169818 -0.07331037
000140 91 9a 3d bd bd cc 5f 3b b5 e7 d9 3d 5e a3 4a bd
       -0.046289984 0.0034149133 0.10639898 -0.049472205
000150 0a 6e 83 3d aa a4 6c bc 76 75 b5 bc 12 f4 88 3d
       0.06417473 -0.014443556 -0.022150736 0.06687178
000160 24 81 3a bd 81 15 15 bd 6e 99 15 bd e4 86 e8 bc
       -0.045533314 -0.03639746 -0.036523275 -0.028384633
000170 a3 7e 80 bc 80 b3 57 bd cd fa 80 3d df ca 16 bd
       -0.015685385 -0.05266142 0.062978365 -0.036814567
000180 79 77 e3 3c ab 75 3a 3d d2 fc 6b 3d 99 2e 94 bd
       0.02776693 0.045522373 0.057614155 -0.0723545
000190 dd 05 42 3c 63 56 8e bc 32 33 2d 3d 33 5d 9d bd
       0.011842218 -0.017375177 0.04228515 -0.07683792
0001a0 31 62 bb bc 61 45 78 bd 01 00 1a 3d 5f 51 96 bd
       -0.02287397 -0.06061304 0.03759766 -0.07339739
0001b0 f2 3f dc 3d c0 bb dd bc ff d7 af 3d a1 d7 b0 bd
       0.10754384 -0.027067065 0.0858612 -0.08634878
0001c0 35 47 7b 3d 50 cf 6b bd 26 33 09 3d b8 0d 7b bd
       0.061347205 -0.057570755 0.033496045 -0.06129238
0001d0 14 b4 f7 3c 92 c8 1d bd 33 49 ce bc f0 92 99 3d
       0.030237235 -0.038521357 -0.025181388 0.07498729
0001e0 1c f6 c8 3c 80 28 26 bc 7c cd 18 3d 36 0f b3 3d
       0.024531417 -0.010141492 0.03730534 0.08743136
0001f0 bc cb ba 3c 6f 8a ad bd 0d ce cf bc 70 b6 8a 3d
       0.022802226 -0.0847367 -0.025366807 0.067730784
000200 f1 ba 86 bb 55 d9 7c 3c 01 ed ab 3d b0 04 47 3c
       -0.0041116406 0.015432675 0.08394814 0.012147114
000210 d5 44 57 3d f2 24 77 bd 01 a7 a2 3b 76 5f d6 3d
       0.052555878 -0.06033797 0.004963756 0.104674265
000220 50 73 10 bd 47 9d 97 3d 03 b4 b3 3d ea bf 60 bc
       -0.03526622 0.07403045 0.08774569 -0.013717631
000230 88 87 17 3d 9e af 99 3d 73 c0 65 3d ed 8b 25 bd
       0.036994487 0.075041994 0.056091737 -0.040416647
000240 a2 27 ca 3d bc 6b 76 3d 41 b7 17 bd 85 82 b3 bd
       0.098708406 0.060161337 -0.03704 -0.08765129
000250 50 0e 75 3d fb 7c 15 3b be a3 22 3d 45 ef bd 3d
       0.059828103 0.002281009 0.039706938 0.09274153
000260 42 fb 70 3d 41 ca 88 3c 39 b8 d1 bc 62 53 ac 3d
       0.058833368 0.016698005 -0.02560054 0.084143415
000270 92 1e b0 3d 53 97 47 3d 26 57 b1 bd 91 b3 b4 bb
       0.08599581 0.0487283 -0.086592 -0.00551457
000280 67 21 55 bc b2 4d 8d 3d 9c 99 8c 3d 3f 11 0c 3d
       -0.013008452 0.06899585 0.06865236 0.034196135
000290 bd 68 75 3d 9f fe a7 bc 76 19 19 bd 62 c9 15 3c
       0.05991434 -0.020507155 -0.037377797 0.009142252
0002a0 28 c9 58 3d 87 bc ab 3d 9c 30 a1 3d 03 76 ab bd
       0.052926213 0.08385568 0.078706 -0.08372118
0002b0 05 d4 24 bd 38 f2 c6 b9 e5 7e eb bb b9 10 8d bb
       -0.04024126 -0.0003794597 -0.007186758 -0.004304972
0002c0 bf 4f e6 ba a1 ed 18 bd 9d bf 40 3d 88 da f6 3d
       -0.0017571374 -0.037335996 0.047057737 0.120534
0002d0 12 3d b0 3d 04 65 bc 3d 21 78 8b 3d e1 14 44 3c
       0.08605398 0.09198955 0.06810022 0.011967869
0002e0 d5 ef 9b bc af 44 5f 3d 3e 41 3e bc d0 26 0b bc
       -0.01903526 0.05450886 -0.011612235 -0.00849314
0002f0 01 f5 87 bd 40 e7 07 3d f1 6b 8e 3d ce 59 cc 3d
       -0.06638528 0.03317952 0.06954182 0.099780664
000300 72 e6 5a 3d 9a 76 5d 3d 89 df 68 3d 6e 1d 2f 3d
       0.053442426 0.054068185 0.056853805 0.042752676
000310 14 ae 80 bd 71 7a a1 3d 8f be a6 bd d3 e3 e9 3b
       -0.06283203 0.07884682 -0.08141815 0.0071377545
000320 2d b7 79 3c da 2d 3a bd 4e f5 37 bc 0d 1c b0 3d
       0.015241426 -0.045453884 -0.011227919 0.085991
000330 6d 92 89 3c bb 62 e6 bb 3b 7b c6 3d 4c 76 36 bd
       0.016793454 -0.0070308126 0.09691473 -0.04454641
000340 08 d0 23 bd 43 90 32 bd 91 3d 02 bd 12 43 57 bd
       -0.039993316 -0.04359461 -0.031796996 -0.052554198
000350 78 80 c4 3b ef d3 15 3d dd e6 6a 3d 12 92 cc 3d
       0.00599676 0.03657907 0.057349075 0.09988798
000360 d2 68 a5 3d 4c 1a c0 3c 87 dd 62 3b 8d 81 dd 3a
       0.080766335 0.02345004 0.0034616904 0.0016899571
000370 84 09 26 3d 42 f9 44 bd 67 63 c3 bc b4 51 8f bc
       0.04053642 -0.048089273 -0.02385111 -0.017495014
000380 84 bf 9a bc f6 0d 5b 3d 24 37 88 bc b8 b7 ee bc
       -0.01889015 0.05348011 -0.016627856 -0.029140338
000390 0b de 76 bd c4 46 80 bc 8b 28 8a bd a3 9f 71 bd
       -0.06027035 -0.015658744 -0.06746014 -0.058990132
0003a0 dc b0 8a 3d fc f4 68 bd 27 5b 8f 3d 5f 68 9d 3d
       0.067720145 -0.05687426 0.06999808 0.07685923
0003b0 3b 66 d5 3d a8 ae 00 3d d2 13 ad bb 63 1f cf 3c
       0.104198895 0.031416565 -0.005281904 0.025283521
0003c0 af 0e 8f 3d 14 ac 6f bc 0e ae 47 bd b3 9a 85 3d
       0.069852225 -0.014628429 -0.048749976 0.06523647
0003d0 ba 91 03 bd 8c e0 c2 bc 24 76 d2 3d 98 13 fb bc
       -0.032121398 -0.023788713 0.1027644 -0.030648991
0003e0 30 55 78 3c 43 15 12 3d 13 fc 68 bd 45 75 d1 3d
       0.015157029 0.035664808 -0.05688102 0.102274455
0003f0 ea 0e 2f 3d 54 7a 27 bd 5a 40 b8 3d c8 c9 84 3d
       0.042738833 -0.040888146 0.08996649 0.06483799

lin.weight f4 [2, 128]
000000 dd 6e d5 3d 22 94 e9 3d bd 6b 5c 3d 60 24 b9 bb
       0.10421536 0.11405207 0.053813685 -0.005650088
000010 f8 e2 e5 bc af e2 5b 3c e1 32 bb bd 3e 00 c5 bc
       -0.028062329 0.013420745 -0.09140564 -0.024047967
000020 bc 1c f3 3d d1 21 16 3d 18 52 66 bc 07 3b 20 3c
       0.11870715 0.036653344 -0.014057659 0.009779698
000030 08 88 a1 bc 39 7b ad 3d 07 6e 11 3e 28 01 0d 3d
       -0.019718185 0.084707685 0.14202128 0.03442493
000040 2b 41 56 3d 45 1e 0d 3e 45 0c 29 bd ba 11 16 3e
       0.052308243 0.13781078 -0.041271467 0.146552
000050 05 f5 57 bd e5 0e d1 3d c3 6e b5 bc 48 fc 18 3e
       -0.052723903 0.10207919 -0.022147542 0.14939988
000060 2f a8 96 3c 44 c3 b5 3d a0 84 e0 3d ab c7 91 bd
       0.018390743 0.088751346 0.10962796 -0.07118162
000070 fa c1 16 3d c5 eb 1c 3d d9 7f a0 bd 55 bf d0 bd
       0.036806084 0.038310785 -0.07836885 -0.10192744
000080 c3 9c f9 3d 53 c6 0b 3e 58 ba ca bd 97 89 e0 3d
       0.12188103 0.13649873 -0.098988235 0.10963743
000090 fe b1 e5 3d f2 ec 0c bd 7b f8 6e 3d 0a e2 6a 3d
       0.1121559 -0.034405656 0.05834244 0.057344474
0000a0 84 fd 51 bc 01 11 ca bd 68 e8 14 3e e5 4b 03 3e
       -0.0128167905 -0.098665245 0.14541781 0.1282192
0000b0 ed 5f b7 bc 9d b3 79 3d 63 ae 2c bd 6a 30 bf 3d
       -0.022384608 0.06096231 -0.042158496 0.09335406
0000c0 a0 ac d8 bd 21 92 f2 bd 7e 30 15 3e bc 48 c4 bd
       -0.105798006 -0.11844278 0.1456928 -0.095841855
0000d0 f0 80 b9 3d 1b 3d 1f bd 17 fe 75 3d 64 29 ca bd
       0.09057796 -0.038876634 0.060056772 -0.09871176
0000e0 8d 7a fa bd 20 a5 a5 bc 19 30 05 be 8e bd fe bc
       -0.12230406 -0.02022034 -0.13006629 -0.031096246
0000f0 aa e2 f5 bd c6 ef 76 bb 2a f8 12 be f7 e0 5b 3d
       -0.12006123 -0.0037679537 -0.1435248 0.05368134
000100 f3 12 4f bc 53 a7 dc bd 67 18 2c 3d 69 80 59 bd
       -0.012638795 -0.10774102 0.04201546 -0.053100977
000110 e2 9f 5b bd dd bf fc 3d df 9d 0c 3e c1 b5 2a bc
       -0.053619273 0.123412825 0.13732098 -0.01041931
000120 26 4d 86 3c bd d5 e5 3c 34 6d 34 bd 0f d1 a8 3d
       0.01639421 0.02805602 -0.044049457 0.08243
000130 39 1f 21 be 10 23 7b 3d 1c 32 3a 39 8b d9 66 3d
       -0.15734567 0.061312735 0.0001775701 0.05635981
000140 ef 1b 10 be f9 4d dc bc 13 85 92 bd 19 e9 fa 3d
       -0.14073156 -0.026892649 -0.07154288 0.12251491
000150 45 b4 e5 3d 8f 32 71 3c cb 8a 16 3e 09 18 cc 3d
       0.11216024 0.014721527 0.14701383 0.09965522
000160 85 6f b9 bd 1b a7 81 3d f9 3f 1a 3e bd 82 1c bd
       -0.09054474 0.06330701 0.15063466 -0.03821062
000170 0d 28 0e be a7 97 8d bd 2d 89 cb 3d f4 c1 90 3d
       -0.13882466 -0.06913691 0.099382736 0.070682436
000180 cb 07 62 3d 60 a7 d4 bd 61 fa c4 3d 48 aa 5a 3d
       0.055183213 -0.10383487 0.096180685 0.05338505
000190 60 b4 04 be 5f 85 92 bd 0a d6 14 3e 01 5b 24 3e
       -0.12959433 -0.07154345 0.14534774 0.1605034
0001a0 54 3e b3 3c f4 29 1e 3d fa 10 2a 3c 4b 97 e9 3d
       0.021880306 0.03861423 0.010380024 0.1140581
0001b0 dd 3e b3 bd 80 24 2b 3e e9 03 bc bd 19 6a 4c 3d
       -0.087522246 0.16713142 -0.09180433 0.04990587
0001c0 a4 8b 9c 3c 94 bd 0a 3e 1a b8 16 be 1d d3 ad bd
       0.019109555 0.13548881 -0.14718667 -0.08487532
0001d0 06 48 e5 bd 6f c8 09 be 10 d1 18 be 7d 1b 7e 3d
       -0.11195378 -0.13455366 -0.14923501 0.062037934
0001e0 dd 87 0a 3e 97 bc 82 3c 56 3f aa bc 28 c4 42 bd
       0.1352839 0.015959067 -0.020782154 -0.04755035
0001f0 f9 ab 06 3e 4e 99 22 3e 0f 63 5a bc a4 76 49 3d
       0.1315154 0.15878794 -0.0133292815 0.04918541
000200 59 f8 af bd b9 83 cb bd 81 89 6a 3c 0a 23 49 ba
       -0.085922904 -0.099372335 0.01431501 -0.0007672763
000210 44 18 a0 3d 0d 0e 30 3d 2e 6f e2 bc 9e 62 89 bd
       0.07817128 0.04298215 -0.027640905 -0.06708263
000220 f4 85 e8 bd 65 05 3f bc f4 57 84 bd 5b 32 1a be
       -0.113536745 -0.011659001 -0.06462088 -0.15058272
000230 ee bf 85 3d 09 bf 75 bb 34 b0 a7 bb 37 b2 95 bd
       0.06530748 -0.00374979 -0.0051174406 -0.073093824
000240 8f 17 7a bc 70 df 7e bd a0 eb 1c bd e5 88 00 be
       -0.015264406 -0.062224805 -0.038310647 -0.12552221
000250 c4 17 bb 3d f0 81 42 bd da 1c 98 3c 86 02 ba bd
       0.09135392 -0.0474872 0.018568445 -0.090825126
000260 3c fb b7 3d cb 36 7f bd b4 fa 36 3a 8e 93 1a 3c
       0.08983466 -0.062308114 0.00069801067 0.009434594
000270 44 df 38 bd bb 0e 13 bd 84 e9 07 3e 58 8d e0 3d
       -0.045134798 -0.03590272 0.13272673 0.10964459
000280 14 68 82 bd b2 f6 92 bd 45 bf 5a 3d 73 e0 00 be
       -0.063675076 -0.0717596 0.053405065 -0.1258562
000290 3b b1 88 bd 7c 40 78 3d f9 1c 88 3d 20 46 3b bd
       -0.06674429 0.060608372 0.06646151 -0.045721173
0002a0 c5 01 80 3c fa a7 e1 3d 65 4a b9 bd 6a f6 d6 bd
       0.015625844 0.11018367 -0.09047393 -0.104962185
0002b0 d4 42 2c bd e0 82 81 3d c9 fc 56 bc 2c 7b da bd
       -0.04205592 0.063237906 -0.013121792 -0.106680244
0002c0 4e 23 38 3c 57 ed cc 3d 42 92 ba 3c bc 7d 01 3e
       0.011238886 0.100062065 0.02277482 0.1264562
0002d0 74 e3 38 bd db b3 8b bd c1 76 8c bd 2c 35 05 3e
       -0.04513879 -0.06821414 -0.06858588 0.13008565
0002e0 0a 78 79 3d d6 e1 07 3e 60 ac d3 3d de c9 f9 3d
       0.060905494 0.13269743 0.10335612 0.12196706
0002f0 77 74 b2 3d 67 0b 75 3c e3 ff 02 3e a6 df 48 bd
       0.0871362 0.014956332 0.12792926 -0.049041413
000300 8f 7d 7b 3d bc 7a a4 3d 58 73 32 bd 56 65 45 3d
       0.06139904 0.08031222 -0.04356703 0.048192345
000310 5a be 10 3d fc e6 0b bd cd 35 ba bd fb a7 50 3d
       0.035337783 -0.03415583 -0.09092293 0.05094145
000320 7c 98 9c 3c 43 a9 ee 3d 4a 09 dc bd a4 bb af bd
       0.019115679 0.11653378 -0.10743959 -0.085807115
000330 aa 04 91 3d d0 d8 49 bd e4 7b ac bd f8 84 cf bd
       0.07080968 -0.049279034 -0.08422068 -0.10132784
000340 b4 ce 0e 3e f9 75 18 bd 9c e2 6f bd 68 09 0c be
       0.13946038 -0.037221882 -0.05856572 -0.13675463
000350 78 9c 1b be 98 49 8c bd d3 37 09 be 18 05 e1 bd
       -0.15196407 -0.068499744 -0.13400201 -0.109873
000360 49 42 dc 3c 19 f9 f6 3c 9d 3d 0d be 6a 82 13 3e
       0.026887076 0.030148076 -0.13793035 0.14405218
000370 52 23 40 3d 22 03 77 bb 37 28 fc bd 0c d6 6c bd
       0.046908684 -0.0037691076 -0.12312358 -0.05782132
000380 07 72 0c bd 13 4a a7 3d d1 bb 8b bd d7 4e a3 bd
       -0.034288432 0.081684254 -0.068229325 -0.07974022
000390 0c 39 00 3e 00 86 9d bd ab 22 e3 bc 31 17 e7 bd
       0.12521762 -0.07691574 -0.027726492 -0.1128372
0003a0 33 51 03 be b4 99 fc bd 98 5a 2d 3b 36 29 4d bd
       -0.12823944 -0.12334004 0.0026451703 -0.05008813
0003b0 48 0a 8d bb 4d 03 c1 bd 73 97 1b 3e 20 c0 b6 bd
       -0.004304204 -0.09424458 0.15194492 -0.08923364
0003c0 b2 86 f3 bd cd 8f 93 bd 0a 74 03 3e 65 23 ef 3d
       -0.118909255 -0.07205162 0.12837234 0.11676673
0003d0 c4 e9 02 3d 02 39 84 3d ce 00 00 3e 37 ab 11 be
       0.031961218 0.06456186 0.12500307 -0.1422547
0003e0 57 f9 da bc 07 c1 03 bd 93 24 df 3d 99 67 7d bc
       -0.026730223 -0.032166507 0.10895648 -0.015466594
0003f0 cc f7 a3 bd 63 c1 82 bd d1 73 b4 3b 7e f4 e1 bd
       -0.08006248 -0.06384542 0.0055069705 -0.11032961

lin.bias f4 [2]
000000 11 2a 32 bc f0 89 88 3d
       -0.010874287 0.066669345
